…
e/s1832582/paintings_rsgan/extraRS', gen_every=100000, gen_extra_images=50000, grad_penalty=False, image_size=128, inception_folder='/home/alexia/Inception', input_folder='/disk/scratch/s1832582', load=None, loss_D=5, lr_D=0.0001, lr_G=0.0001, n_colors=3, n_gpu=4, n_iter=50000, no_batch_norm_D=False, no_batch_norm_G=False, output_folder='/home/s1832582/paintings_rsgan', penalty=10, print_every=1000, save=True, seed=None, show_graph=False, spectral=False, spectral_G=False, weight_decay=0, z_size=128)
Random Seed: 8210
Initialized weights
DCGAN_G(
  (main): Sequential(
    (Start-ConvTranspose2d): ConvTranspose2d(128, 2048, kernel_size=(4, 4), stride=(1, 1), bias=False)
    (Start-BatchNorm2d): BatchNorm2d(2048, eps=1e-05, momentum=0.1, affine=True, track_running_stats=True)
    (Start-ReLU): ReLU()
    (Middle-ConvTranspose2d [1]): ConvTranspose2d(2048, 1024, kernel_size=(4, 4), stride=(2, 2), padding=(1, 1), bias=False)
    (Middle-BatchNorm2d [1]): BatchNorm2d(1024, eps=1e-05, momentum=0.1, affine=True, track_running_stats=True)
    (Middle-ReLU [1]): ReLU()
    (Middle-ConvTranspose2d [2]): ConvTranspose2d(1024, 512, kernel_size=(4, 4), stride=(2, 2), padding=(1, 1), bias=False)
    (Middle-BatchNorm2d [2]): BatchNorm2d(512, eps=1e-05, momentum=0.1, affine=True, track_running_stats=True)
    (Middle-ReLU [2]): ReLU()
    (Middle-ConvTranspose2d [3]): ConvTranspose2d(512, 256, kernel_size=(4, 4), stride=(2, 2), padding=(1, 1), bias=False)
    (Middle-BatchNorm2d [3]): BatchNorm2d(256, eps=1e-05, momentum=0.1, affine=True, track_running_stats=True)
    (Middle-ReLU [3]): ReLU()
    (Middle-ConvTranspose2d [4]): ConvTranspose2d(256, 128, kernel_size=(4, 4), stride=(2, 2), padding=(1, 1), bias=False)
    (Middle-BatchNorm2d [4]): BatchNorm2d(128, eps=1e-05, momentum=0.1, affine=True, track_running_stats=True)
    (Middle-ReLU [4]): ReLU()
    (End-ConvTranspose2d): ConvTranspose2d(128, 3, kernel_size=(4, 4), stride=(2, 2), padding=(1, 1), bias=False)
    (End-Tanh): Tanh()
  )
)
DCGAN_D(
  (main): Sequential(
    (Start-Conv2d): Conv2d(3, 128, kernel_size=(4, 4), stride=(2, 2), padding=(1, 1), bias=False)
    (Start-LeakyReLU): LeakyReLU(negative_slope=0.2, inplace)
    (Middle-Conv2d [0]): Conv2d(128, 256, kernel_size=(4, 4), stride=(2, 2), padding=(1, 1), bias=False)
    (Middle-BatchNorm2d [0]): BatchNorm2d(256, eps=1e-05, momentum=0.1, affine=True, track_running_stats=True)
    (Middle-LeakyReLU [0]): LeakyReLU(negative_slope=0.2, inplace)
    (Middle-Conv2d [1]): Conv2d(256, 512, kernel_size=(4, 4), stride=(2, 2), padding=(1, 1), bias=False)
    (Middle-BatchNorm2d [1]): BatchNorm2d(512, eps=1e-05, momentum=0.1, affine=True, track_running_stats=True)
    (Middle-LeakyReLU [1]): LeakyReLU(negative_slope=0.2, inplace)
    (Middle-Conv2d [2]): Conv2d(512, 1024, kernel_size=(4, 4), stride=(2, 2), padding=(1, 1), bias=False)
    (Middle-BatchNorm2d [2]): BatchNorm2d(1024, eps=1e-05, momentum=0.1, affine=True, track_running_stats=True)
    (Middle-LeakyReLU [2]): LeakyReLU(negative_slope=0.2, inplace)
    (Middle-Conv2d [3]): Conv2d(1024, 2048, kernel_size=(4, 4), stride=(2, 2), padding=(1, 1), bias=False)
    (Middle-BatchNorm2d [3]): BatchNorm2d(2048, eps=1e-05, momentum=0.1, affine=True, track_running_stats=True)
    (Middle-LeakyReLU [3]): LeakyReLU(negative_slope=0.2, inplace)
    (End-Conv2d): Conv2d(2048, 1, kernel_size=(4, 4), stride=(1, 1), bias=False)
  )
)
[999] Diff: 22.5979 loss_D: 0.2482 loss_G: 22.8461 time:4570.1636
[1999] Diff: 12.0114 loss_D: 0.0124 loss_G: 12.0238 time:8855.6065
[2999] Diff: 14.4266 loss_D: 0.1340 loss_G: 14.5606 time:13303.6786
[3999] Diff: 10.0737 loss_D: 0.0764 loss_G: 10.1501 time:17776.0781
[4999] Diff: 9.6017 loss_D: 0.0666 loss_G: 9.6683 time:22185.6167
[5999] Diff: 10.9845 loss_D: 1.0879 loss_G: 12.0724 time:26517.2959
…
